Session_CNN_2/model.pth (torch, 241492 bytes, 24 tensors)

layer1.0.weight f4 [64, 1, 5, 5]
-0.192838 0.18608896 0.10717136 0.09544926 -0.13810581 -0.07730646 0.021227747 0.1336413
-0.007997919 -0.0151627585 0.017792806 -0.0963629 0.04319948 -0.052252173 -0.15120141 0.044901505
0.034838744 0.16654398 0.169027 -0.12897672 -0.050899573 -0.0016884573 -0.06169873 -0.1817875
0.15538333 -0.20473152 -0.028567433 -0.0828464 0.01347022 0.15820426 0.082658835 -0.0028606076
-0.018922862 -0.12422508 -0.11200036 -0.11360974 0.13499306 0.1400643 -0.09655148 0.11138097
0.069208935 0.08675275 -0.12258202 -0.07862654 0.05150034 0.021447297 -0.1322698 -0.017672248
-0.18407728 0.052397452 -0.041744802 -0.20029065 -0.16629854 -0.06275717 -0.17012137 -0.16062751
-0.14937963 -0.1723977 0.12834436 0.0056246477 -0.15436895 -0.024887383 0.112470776 -0.15920815
0.16390413 0.16766275 0.029685454 0.14856434 0.1642336 0.18951863 -0.1531369 -0.083136186
0.060906917 -0.15513478 0.07353144 -0.17926444 -0.018565224 -0.20010617 -0.20140049 -0.07487999
0.017759608 -0.012013271 -0.035914484 0.044481657 0.049030416 0.11271005 -0.0071689757 0.18768255
0.14319281 -0.18393272 -0.07781627 -0.16541651 0.050585143 0.14078155 -0.18249242 0.078230456
0.032398842 -0.079728395 0.047662567 0.0393657 0.1233008 0.055460207 -0.07848543 -0.19655065
0.14667554 -0.20108032 -0.060956918 0.046472497 0.13881412 -0.086229935 -0.19254719 0.010316973
-0.08398852 0.18545401 -0.17695168 -0.16294277 -0.19850685 -0.19402964 0.17459707 0.17756875
-0.027037013 -0.059054866 0.026356066 0.060339652 0.061531205 -0.16490515 0.1856702 0.063173555
0.01362535 -0.010864696 -0.05262273 -0.031344403 0.13256077 -0.10678844 -0.15604596 0.034346446
0.15306152 0.108590394 0.10495345 -0.06734322 -0.18738063 0.06378274 0.19742914 0.15289837
-0.13072163 -0.0075877868 0.15482935 0.07138504 -0.08612649 -0.11291252 -0.025776843 0.19448103
0.092549585 -0.1018421 0.07679896 0.1985565 0.009692754 -0.02637351 0.02073701 -0.19139208
-0.19071637 -0.12886336 0.17370857 0.0050572758 0.123502694 0.049394153 0.09095851 0.18288967
0.13451956 0.01961115 0.14950506 -0.07096303 0.13344143 0.19821581 -0.034098297 0.17860018
0.09504579 -0.06134744 -0.17826886 0.19023499 0.05458965 0.04226823 -0.20096292 0.0261104
0.03690602 0.047491074 0.014637357 -0.11097993 -0.14792925 0.07040484 -0.006460105 -0.11851849
0.11987703 -0.1594382 0.13702396 0.11785362 -0.08020569 0.16456975 -0.13497262 0.05826584
-0.040179387 0.031466383 -0.089544706 0.15916483 -0.12704872 -0.06570657 -0.15464513 -0.13924737
-0.1675524 0.16511731 -0.009653479 -0.024060221 -0.13194425 0.11753418 0.046608146 0.0006841307
0.03364341 0.024231153 -0.13839623 -0.16018508 -0.19321801 0.014449599 -0.047596682 -0.1809185
0.137778 -0.05837429 0.1850842 0.16024014 0.018093474 0.15071812 -0.0036797812 -0.17944904
-0.19316156 0.13323957 -0.1267749 0.1635936 -0.10272481 -0.099596545 0.009807286 0.09455613
0.17391871 -0.19899295 -0.15680094 0.06450811 0.094995156 -0.0021171554 0.07803126 -0.190758
0.044459563 -0.043826316 0.18847616 -0.12833513 0.09764432 0.16932376 0.1751858 0.055506196
00000000: 5377 45be 1b8e 3e3e a87c db3d e77a c33d
00000010: 9c6b 0dbe d952 9ebd d0e5 ad3c 44d9 083e
00000020: b409 03bc 386d 78bc 38c2 913c ea59 c5bd
00000030: f0f1 303d 6006 56bd 8bd4 1abe a4ea 373d
00000040: 12b3 0e3d 818a 2a3e 6a15 2d3e 7912 04be
00000050: 127c 50bd 3a4f ddba cfb7 7cbd 8126 3abe
00000060: cf1c 1f3e 24a5 51be 4006 eabc 60ab a9bd
00000070: 33b2 5c3c 4c00 223e 0949 a93d 0879 3bbb
00000080: 1e04 9bbc b869 febd 7260 e5bd 39ac e8bd
00000090: 9f3b 0a3e 046d 0f3e c8bc c5bd b51b e43d
000000a0: 6abd 8d3d 6dab b13d 480c fbbd f406 a1bd
000000b0: 05f2 523d 3eb2 af3c bc71 07be 64c5 90bc
000000c0: c17e 3cbe b69e 563d 99fc 2abd fe18 4dbe
000000d0: 2a4a 2abe d586 80bd 4c34 2ebe 8a7b 24be
000000e0: f9f6 18be 0689 30be b46c 033e f74e b83b
000000f0: e512 1ebe a0e0 cbbc 1457 e63d 7607 23be
00000100: 7cd6 273e c9af 2b3e e92e f33c 4021 183e
00000110: da2c 283e 2c11 423e ebcf 1cbe 4e43 aabd
00000120: 8879 793d a7db 1ebe a797 963d 1991 37be
00000130: 1916 98bc a2e8 4cbe ee3b 4ebe ae5a 99bd
00000140: 997c 913c 50d3 44bc 111b 13bd 6632 363d
00000150: 1ed4 483d 87d4 e63d bae9 eabb db2f 403e
00000160: 23a1 123e dc58 3cbe 235e 9fbd f262 29be
00000170: 5e32 4f3d 0a29 103e 4bdf 3abe 4a37 a03d
00000180: a6b4 043d a448 a3bd d339 433d ee3d 213d
00000190: 2185 fc3d 3e2a 633d f8bc a0bd 9344 49be
000001a0: 1d32 163e 00e8 4dbe f6ad 79bd f259 3e3d
000001b0: 4a25 0e3e 5299 b0bd 172b 45be 8508 293c
000001c0: 2c02 acbd a8e7 3d3e d232 35be 78da 26be
000001d0: 6145 4bbe b5af 46be 93c9 323e 95d4 353e
000001e0: ba7c ddbc 84e3 71bd ade8 d73c b626 773d
000001f0: 2508 7c3d e5dc 28be 5420 3e3e 2361 813d
00000200: dc3c 5f3c d701 32bc ef8a 57bd fd62 00bd
00000210: 03be 073e e6b3 dabd 83ca 1fbe dcae 0c3d
00000220: 29bc 1c3e a464 de3d d6f1 d63d 3eeb 89bd
00000230: b5e0 3fbe 86a0 823d dd2a 4a3e 6491 1c3e
00000240: e4db 05be f8a2 f8bb 968b 1e3e 5232 923d
00000250: 1663 b0bd ae3e e7bd f529 d3bc 0926 473e
00000260: a38a bd3d 9792 d0bd c648 9d3d 6552 4b3e
00000270: 5bce 1e3c 420d d8bc a9e0 a93c 49fc 43be
00000280: 274b 43be c2f4 03be a9e0 313e 81b7 a53b
00000290: fbee fc3d 8651 4a3d 7548 ba3d 6e47 3b3e
000002a0: 7fbf 093e 90a7 a03c db17 193e 1155 91bd
000002b0: dfa4 083e 16f9 4a3e a8aa 0bbd f7e2 363e
000002c0: 5ea7 c23d 7447 7bbd 1d8c 36be f6cc 423e
000002d0: 6699 5f3d 7421 2d3d 39c9 4dbe 7ae5 d53c
000002e0: c42a 173d 0086 423d 86d1 6f3c 7249 e3bd
000002f0: c47a 17be 6a30 903d 4aaf d3bb d2b9 f2bd
00000300: 1782 f53d c443 23be 0250 0c3e 3d5d f13d
00000310: e142 a4bd f984 283e 4336 0abe 29a8 6e3d
00000320: 2493 24bd e5e2 003d 3763 b7bd 1bfc 223e
00000330: 0f19 02be 2b91 86bd 4b5b 1ebe dd96 0ebe
00000340: db92 2bbe 8314 293e a029 1ebc f119 c5bc
00000350: 651c 07be c3b5 f03d 2fe8 3e3d 3c57 333a
00000360: accd 093d 6980 c63c beb7 0dbe 8f07 24be
00000370: f1da 45be 03be 6c3c bdf4 42bd b342 39be
00000380: ad15 0d3e e119 6fbd b686 3d3e fe15 243e
00000390: c438 943c da55 1a3e 7c28 71bb 7dc1 37be
000003a0: 25cc 45be f46f 083e 48d1 01be 1585 273e
000003b0: 6361 d2bd 46f9 cbbd bdae 203c a5a6 c13d
000003c0: bf17 323e cfc4 4bbe 6d90 20be d41c 843d
000003d0: d28c c23d f9bf 0abb dace 9f3d 1156 43be
000003e0: 3b1b 363d 3983 33bd e5ff 403e 496a 03be
000003f0: bff9 c73d 3563 2d3e e863 333e 775a 633d

layer1.0.bias f4 [64]
0.10328902 0.17591487 0.034288526 -0.1288076 -0.14897244 0.14530374 -0.02075705 -0.106515504
0.059867784 -0.15751731 0.02101235 -0.011229798 0.13011135 -0.0128893405 0.097517 0.09610571
0.13548495 0.15221073 0.1676357 -0.0022284088 -0.026098773 -0.101833485 -0.052769154 0.033927232
-0.008360818 -0.02165094 0.16520484 0.14215316 -0.057013676 0.13635375 0.08213182 0.084471986
0.066370234 -0.045389816 0.18860628 0.16062485 0.1157646 -0.046871424 0.14380135 0.12527163
-0.051950976 0.065295294 0.0663252 0.039224148 0.100458875 -0.108759046 -0.044291183 0.13931464
-0.056336835 -0.04986313 0.109463975 -0.021198079 0.17799152 0.17863716 -0.14525314 0.09362011
-0.15667936 0.17157237 -0.19360209 0.0755979 0.1023276 -0.0424041 0.12601696 -0.17093961
00000000: 3289 d33d 0723 343e 2072 0c3d 24e6 03be
00000010: 3b8c 18be 81ca 143e b00a aabc cd24 dabd
00000020: ec37 753d 384c 21be 1822 ac3c 30fd 37bc
00000030: e93b 053e d02d 53bc feb6 c73d 12d3 c43d
00000040: 91bc 0a3e 21dd 1b3e b1a8 2b3e 7f0a 12bb
00000050: 18cd d5bc 138e d0bd 7824 58bd 48f7 0a3d
00000060: d0fb 08bc 505d b1bc 752b 293e 9990 113e
00000070: 2c87 69bd 51a0 0b3e ba34 a83d a6ff ac3d
00000080: 1eed 873d acea 39bd 0122 413e d77a 243e
00000090: fe15 ed3d 40fc 3fbd a940 133e 3547 003e
000000a0: 8cca 54bd 8ab9 853d 82d5 873d 80a9 203d
000000b0: 62bd cd3d 10bd debd ac6a 35bd 7fa8 0e3e
000000c0: 74c1 66bd 483d 4cbd a62e e03d 98a7 adbc
000000d0: 6943 363e a9ec 363e 3dbd 14be e6bb bf3d
000000e0: 8e70 20be abb0 2f3e a03f 46be 12d3 9a3d
000000f0: 2291 d13d ecaf 2dbd 970a 013e cb0a 2fbe

layer1.1.weight f4 [64]
1.0000876 1.0001535 1.0004505 0.997655 0.99925685 0.99946725 0.99944574 1.0011011
1.001286 0.9967024 1.0015507 0.9991533 1.0012612 0.9994851 0.9990323 1.0022758
1.0024215 0.99982977 1.0030198 0.99871373 0.9999357 1.0011877 1.0000433 1.0005927
0.9995016 0.9997798 1.0012293 1.0002227 1.0007792 0.99945885 0.9979914 1.0017018
1.0006142 1.0016533 1.0000409 1.0005896 0.99697286 1.0007689 0.99930364 0.9994738
0.9997656 1.0019317 0.99973404 1.0007185 0.99608713 1.0005974 1.0017163 0.9985071
0.99832225 0.99940807 0.99956405 1.0022622 0.9970096 0.99919915 0.99983585 0.999228
1.0014235 1.0013701 1.0000349 0.99896747 0.9998573 0.9998849 1.0004913 0.99979097
00000000: df02 803f 0805 803f c30e 803f 5166 7f3f
00000010: 4ccf 7f3f 16dd 7f3f addb 7f3f 1524 803f
00000020: 242a 803f e327 7f3f d032 803f 83c8 7f3f
00000030: 5429 803f 41de 7f3f 95c0 7f3f 934a 803f
00000040: 594f 803f d8f4 7f3f f462 803f b4ab 7f3f
00000050: c9fb 7f3f eb26 803f 6b01 803f 6c13 803f
00000060: 56df 7f3f 92f1 7f3f 4828 803f 4c07 803f
00000070: 8819 803f 89dc 7f3f 5d7c 7f3f c437 803f
00000080: 2014 803f 2d36 803f 5701 803f 5213 803f
00000090: 9d39 7f3f 3219 803f 5dd2 7f3f 84dd 7f3f
000000a0: a3f0 7f3f 4c3f 803f 92ee 7f3f 8b17 803f
000000b0: 91ff 7e3f 9313 803f 3d38 803f 299e 7f3f
000000c0: 0c92 7f3f 35d9 7f3f 6ee3 7f3f 214a 803f
000000d0: 053c 7f3f 84cb 7f3f 3ef5 7f3f 68cd 7f3f
000000e0: a52e 803f e52c 803f 2501 803f 55bc 7f3f
000000f0: a6f6 7f3f 75f8 7f3f 1910 803f 4df2 7f3f

layer1.1.bias f4 [64]
0.001064336 -0.00038105936 -0.0032222988 -0.002376958 -0.0018664051 0.0008828633 0.0020436354 0.0012072659
-0.0011395634 -0.0014594559 0.0023555728 -0.0006328318 0.0023787261 -0.0014792287 -0.00072242256 -0.00048737854
0.0006633422 0.0002635913 -0.0010087104 0.0021918847 0.002422834 -0.0010705614 -0.0009390252 0.0010257768
0.0010211493 -0.00073010364 0.00089093513 -0.0016366539 0.000694654 0.0010746393 -0.0024957743 0.0005038008
0.00066961424 0.0008246824 -7.3744646e-05 -0.001557859 -0.00055405585 0.0011141059 0.0017507925 0.0013653341
4.0403927e-05 -0.0007200057 -0.00071511144 0.00064812426 -0.0005328235 -0.00056876976 -0.0003210116 0.000308388
-0.0003575861 -0.000863443 -0.0014903466 0.001971959 -0.00013997131 -0.0003211328 0.0009325967 0.0010708501
-0.00025930628 -0.0012188118 -0.0005256672 -0.00013208184 0.0006612779 0.0010459861 -0.00039865525 0.00021853685
00000000: 3181 8b3a ecc8 c7b9 342d 53bb bdc6 1bbb
00000010: 2aa2 f4ba f46f 673a 83ee 053b 1f3d 9e3a
00000020: 675d 95ba 374b bfba f45f 1a3b a0e4 25ba
00000030: 67e4 1b3b aee2 c1ba f560 3dba d786 ffb9
00000040: 24e4 2d3a a032 8a39 b436 84ba b9a5 0f3b
00000050: 69c8 1e3b 1452 8cba ea28 76ba 5c73 863a
00000060: 16d8 853a 6d64 3fba a58d 693a fe84 d6ba
00000070: 7119 363a e9da 8c3a 2590 23bb 8011 043a
00000080: 0d89 2f3a 802f 583a 5ba7 9ab8 1331 ccba
00000090: 0f3e 11ba 3107 923a d97a e53a 03f5 b23a
000000a0: 6377 2938 c4be 3cba 5176 3bba e2e6 293a
000000b0: 2ead 0bba 7e19 15ba 734d a8b9 23af a139
000000c0: 657a bbb9 ae58 62ba bc57 c3ba fb3b 013b
000000d0: 43c5 12b9 b75d a8b9 8179 743a c45b 8c3a
000000e0: 80f3 87b9 8ac0 9fba eecc 09ba 737f 0ab9
000000f0: 9c59 2d3a 7819 893a 9a02 d1b9 0a27 6539

layer1.1.running_mean f4 [64]
0.11014427 0.06449676 -0.13400789 -0.26021948 -0.29686087 0.24072161 0.28815365 -0.066409074
-0.2085015 -0.15671204 0.15922724 -0.09467619 0.1871974 -0.025533583 0.56490225 0.05519025
0.13240865 0.25280347 -0.015875954 0.14835553 0.16469687 -0.5671851 -0.18816331 -0.0885771
0.15505786 0.2717662 0.07821729 0.08754385 -0.060436033 -0.04820893 -0.04460173 0.29225144
0.037309367 0.2877212 0.03144631 0.22236581 0.24076258 -0.28930953 0.24388324 0.14045402
0.32004806 -0.0076198024 0.07059956 0.041591253 0.18695879 -0.027827233 -0.18636258 0.13882239
-0.10990786 0.09642884 -0.07228475 0.097160876 0.18534589 0.4848722 -0.25166407 0.14655942
0.14784384 0.0031794584 0.10775209 -0.056286912 0.1085581 0.114658944 0.046249602 -0.0610871
00000000: 5293 e13d e116 843d 5d39 09be 7d3b 85be
00000010: 26fe 97be ba7f 763e e088 933e 7b01 88bd
00000020: 6b81 55be 1f79 20be 770c 233e 97e5 c1bd
00000030: adb0 3f3e ce2b d1bc 6f9d 103f 2c0f 623d
00000040: 2296 073e 756f 813e 4a0e 82bc 83ea 173e
00000050: 4ca6 283e 0b33 11bf e2ad 40be e967 b5bd
00000060: 7dc7 1e3e f024 8b3e 6330 a03d 314a b33d
00000070: c68b 77bd ba76 45bd 4eb0 36bd fba1 953e
00000080: b5d1 183d 3150 933e d9cd 003d ddb3 633e
00000090: 778a 763e 6120 94be 87bc 793e 2ed3 0f3e
000000a0: 57dd a33e 89af f9bb 8196 903d 975b 2a3d
000000b0: 2072 3f3e f0f5 e3bc d5d5 3ebe 7527 0e3e
000000c0: 5f17 e1bd 7c7c c53d 070a 94bd 48fc c63d
000000d0: 50cb 3d3e 2b41 f83e 1dda 80be ac13 163e
000000e0: 6064 173e 765e 503b 21ad dc3d 1b8d 66bd
000000f0: b653 de3d 4fd2 ea3d 3970 3d3d 7836 7abd

layer1.1.running_var f4 [64]
0.010051154 0.019736443 0.0706125 0.028191656 0.05323406 0.039368812 0.1121457 0.015043593
0.08292883 0.015160994 0.04842125 0.018375676 0.013914685 0.011491712 0.22934683 0.014807777
0.017434282 0.018392809 0.05569916 0.040023413 0.04242959 0.23371622 0.037648298 0.028774004
0.032606095 0.10442463 0.034838896 0.009191338 0.013873807 0.03898372 0.035783295 0.047773696
0.0106418645 0.12263782 0.04312335 0.015074232 0.021549879 0.067018524 0.020492641 0.017430425
0.15013015 0.020133 0.010714667 0.014560261 0.02637971 0.022959039 0.028784491 0.015719196
0.015779132 0.034492318 0.041517258 0.039736938 0.008172872 0.10553963 0.023114346 0.0121622225
0.10683486 0.035810906 0.09474662 0.03212454 0.016165722 0.031870257 0.012292853 0.020826714
00000000: 98ad 243c 52ae a13c 499d 903d 30f2 e63c
00000010: f50b 5a3d 3141 213d a5ac e53d 6779 763c
00000020: 97d6 a93d d165 783c 5c55 463d 9688 963c
00000030: 6bfa 633c bc47 3c3c e5d9 6a3e 519c 723c
00000040: 57d2 8e3c 84ac 963c cd24 643d 97ef 233d
00000050: a6ca 2d3d 4e53 6f3e 1a35 1a3d 76b7 eb3c
00000060: f88d 053d 95dc d53d 3bb3 0e3d 4497 163c
00000070: f74e 633c 65ad 1f3d 8191 123d 5aae 433d
00000080: 375b 2e3c 8a29 fb3d 1ca2 303d e9f9 763c
00000090: 5f89 b03c 0241 893d 2fe0 a73c 40ca 8e3c
000000a0: b8bb 193e f6ed a43c 928c 2f3c 298e 6e3c
000000b0: 431a d83c 9814 bc3c 74cd eb3c 8bc5 803c
000000c0: 3d43 813c d147 0d3d 000e 2a3d 33c3 223d
000000d0: 82e7 053c 2925 d83d 4c5a bd3c 0f44 473c
000000e0: 3ccc da3d 75ae 123d 840a c23d 0695 033d
000000f0: fa6d 843c 638a 023d f667 493c c99c aa3c

layer2.0.weight f4 [16, 64, 3, 3]
-0.010809933 -0.0014537923 -0.032536548 -0.0038280443 0.03915056 -0.012037313 0.00063768815 -0.035643503
0.029279936 0.0087971985 0.015114194 0.04460425 -0.002863155 0.043611314 0.03356923 -0.00531804
-0.008395181 -0.03176829 -0.010080616 -0.025386544 -0.011915061 -0.023041677 0.010130857 -0.032393124
0.0027303877 0.0314354 0.03958544 0.010816157 0.0023167161 0.016626988 0.027436733 0.0031832126
0.01356607 0.0009926695 0.034330726 0.03422317 0.011424947 0.022730738 -0.015434051 -0.03327224
-0.029655071 0.013421064 -0.0216454 -0.020589333 0.00024834034 -0.024944596 -0.01993848 0.037443366
-0.024550386 -0.036221433 -0.02605776 -0.042593297 0.006402561 -0.0048126387 -0.0009383573 0.021115515
-0.011348375 0.010679302 0.007911246 -0.03486141 0.019700577 -0.0010603376 -0.0032396337 -0.024802012
0.0144140925 0.031341664 -0.03696168 0.017470585 0.019444996 0.024623562 -0.025580443 0.022934992
0.015302206 -0.009638183 -0.016495738 0.026440779 -0.0045259558 -0.019820917 0.03302395 -0.012345534
-0.02535434 -0.0214063 -0.014798546 0.009705893 0.0059578395 0.024660202 0.033719998 0.0027974015
0.010585679 -0.000669728 -0.027020482 0.011017081 0.01619858 0.016618157 0.0142614795 0.042982593
0.033608515 -0.0007678235 0.00495583 0.0066816667 -0.009105567 0.01937176 -0.04190972 0.015313461
0.019007297 -0.0058741802 0.024088861 0.007801553 -0.0057033957 -0.001207495 0.0165397 0.04203121
0.032550674 0.0063602068 -0.011860281 0.0016140636 -0.017871354 0.031153731 -0.02726052 -0.009977279
-0.011588899 0.010929957 0.01634035 0.010319783 0.022392718 -0.010810103 0.023187581 0.022388272
0.023537347 0.012842646 0.014688382 0.0010427539 0.016094206 -0.031433426 -0.018806553 0.041634005
-0.0037473028 0.036497768 -0.03562861 0.04177289 -0.029336203 -0.041009184 -0.00026378164 -0.025862493
0.0025793232 0.02162588 -0.035702106 -0.022520032 0.015976243 -0.011038597 0.027292874 0.006204005
-0.038116142 -0.033953466 0.026680863 -0.035247568 0.0037170877 0.025061788 -0.009639713 0.021315323
-0.043266553 -0.036013998 -0.007861235 0.022060202 -0.017604137 -0.0018815754 0.00900643 0.04306688
-0.012140397 -0.013842245 0.021693513 0.03923148 -0.00034303707 0.021585727 0.013502053 0.01026754
0.036247216 -0.005221271 -0.022274943 0.03392635 -0.0062374994 0.0096316375 0.029403798 -0.0312254
0.034329575 -0.031308714 0.034375712 -0.0040874523 -0.03536331 -0.020286487 0.0216528 0.03011945
-0.035802115 0.027167551 -0.01849353 0.034512136 0.00090851606 -0.012430906 0.022689864 0.015360495
0.021493671 -0.027148657 0.038203154 -0.0171751 0.021561945 0.015507911 -0.011029043 -0.012604121
-0.035566084 0.04040766 -0.01190085 0.0028901002 0.0372482 -0.009782288 -0.026809415 0.038343236
-0.024512425 -0.015960757 0.04202999 0.009490483 -0.018105552 -0.033513963 -0.0048888843 0.02732852
-0.028016632 -0.034641773 -0.043716837 0.026777843 0.0068604583 -0.033347294 0.038247246 -0.04028924
-0.0085742595 -0.014369659 -0.02379166 0.015976848 -0.0130930655 -0.014118526 0.008142237 0.015921924
0.031294912 0.04310477 0.023085546 0.036780432 -0.03317909 0.0011860678 -0.008176 -0.014977661
0.009910668 -0.005400336 -0.035398055 0.037512586 0.0041108504 -0.022943178 0.032141063 -0.0061268737
00000000: 251c 31bc 2d8d beba 0b45 05bd eddf 7abb
00000010: 565c 203d 2638 45bc 872a 273a ecfe 11bd
00000020: 7adc ef3c 2022 103c 86a1 773c f2b2 363d
00000030: c5a3 3bbb c7a1 323d e47f 093d f442 aebb
00000040: f18b 09bc 771f 02bd 2b29 25bc 71f7 cfbc
00000050: 6337 43bc e6c1 bcbc e5fb 253c a7ae 04bd
00000060: 4ef0 323b 68c2 003d 5824 223d 4036 313c
00000070: 0cd4 173b 5235 883c 00c3 e03c 729d 503b
00000080: 3944 5e3c 761c 823a 609e 0c3d 982d 0c3d
00000090: b32f 3b3c d035 ba3c 1adf 7cbc 7948 08bd
000000a0: 31ef f2bc 06e4 5b3c b251 b1bc f6aa a8bc
000000b0: ad33 8239 9c58 ccbc 0656 a3bc 375e 193d
000000c0: e41d c9bc ed5c 14bd 1577 d5bc 4f76 2ebd
000000d0: 93cc d13b 57b3 9dbb 18fc 75ba 72fa ac3c
000000e0: 89ee 39bc 3df8 2e3c 2c9e 013c d6ca 0ebd
000000f0: 1b63 a13c 07fb 8aba 0950 54bb 972d cbbc
00000100: 1629 6c3c 1e60 003d 2165 17bd 791e 8f3c
00000110: 1d4b 9f3c 5ab7 c93c 148e d1bc 2ae2 bb3c
00000120: 1bb6 7a3c 78e9 1dbc 1222 87bc 559a d83c
00000130: 784e 94bb 7a5f a2bc 1f44 073d ec44 4abc
00000140: e8b3 cfbc 445c afbc 9a75 72bc 7705 1f3c
00000150: fb39 c33b 3104 ca3c fb1d 0a3d 9c54 373b
00000160: 8e6f 2d3c af90 2fba 0f5a ddbc fd80 343c
00000170: e2b2 843c cd22 883c fba8 693c 840e 303d
00000180: 15a9 093d c347 49ba 8464 a23b e2f1 da3b
00000190: 842f 15bc 86b1 9e3c 87a9 2bbd 50e5 7a3c
000001a0: 31b5 9b3c 327c c0bb 0156 c53c 2ba4 ff3b
000001b0: 8de3 babb cf44 9eba 447e 873c eb28 2c3d
000001c0: db53 053d 4869 d03b a051 42bc fd8e d33a
000001d0: f266 92bc 1c36 ff3c 7451 dfbc be77 23bc
000001e0: 5edf 3dbc 9013 333c 33dc 853c 4f14 293c
000001f0: ef70 b73c dc1c 31bc e2f3 bd3c 9c67 b73c
00000200: 65d1 c03c f669 523c 8aa7 703c 04ad 883a
00000210: ffd7 833c 56c0 00bd 3310 9abc 6b88 2a3d
00000220: 4f95 75bb af7e 153d 4eef 11bd 0d1a 2b3d
00000230: 7a52 f0bc 3ff9 27bd 2c4c 8ab9 94dd d3bc
00000240: dd09 293b c228 b13c 5f3c 12bd ee7b b8bc
00000250: 9ce0 823c 3bdb 34bc 4e95 df3c f74a cb3b
00000260: ac1f 1cbd ca12 0bbd d391 da3c c15f 10bd
00000270: 629a 733b 614e cd3c e3ef 1dbc 799d ae3c
00000280: 4538 31bd 6a83 13bd 69cc 00bc 99b7 b43c
00000290: 8d36 90bc 329f f6ba b58f 133c e666 303d
000002a0: 84e8 46bc 95ca 62bc 98b6 b13c 30b1 203d
000002b0: a8d9 b3b9 8dd4 b03c b737 5d3c 2f39 283c
000002c0: f677 143d 3217 abbb f179 b6bc 5bf6 0a3d
000002d0: f063 ccbb 04ce 1d3c 3ce0 f03c 69cc ffbc
000002e0: 2b9d 0c3d 913d 00bd 8ccd 0c3d 09f0 85bb
000002f0: 1ed9 10bd d92f a6bc 3661 b13c 11bd f63c
00000300: 3da5 12bd 7c8e de3c be7f 97bc 995c 0d3d
00000310: 7b29 6e3a 00ab 4bbc 18e0 b93c 96aa 7b3c
00000320: 7f13 b03c dc66 debc e97a 1c3d ccb2 8cbc
00000330: ada2 b03c e514 7e3c 29b3 34bc 8481 4ebc
00000340: bead 11bd 8182 253d c8fb 42bc d667 3d3b
00000350: 9291 183d e445 20bc 6b9f dbbc cc0d 1d3d
00000360: 48ce c8bc 22c0 82bc a427 2c3d f97d 1b3c
00000370: 1852 94bc f045 09bd ef32 a0bb 0fe0 df3c
00000380: 2383 e5bc 88e4 0dbd 6d10 33bd 355d db3c
00000390: b2cd e03b 2c97 08bd 25a9 1c3d 5506 25bd
000003a0: 0d7b 0cbc b86e 6bbc bae6 c2bc e1e1 823c
000003b0: 4c84 56bc 6451 67bc 0467 053c b26e 823c
000003c0: 182f 003d a18e 303d e61d bd3c 14a7 163d
000003d0: cce6 07bd d575 9b3a a1f4 05bc dd64 75bc
000003e0: 5b60 223c 4df5 b0bb 8dfd 10bd cca6 193d
000003f0: 50b4 863b 55f3 bbbc 59a6 033d f1c3 c8bb

layer2.0.bias f4 [16]
-0.0017746203 0.0288832 -0.033825614 -0.0031949617 -0.03092452 0.016335621 -0.0060337447 -0.0011039935
-0.017058631 -0.024595078 0.0018757246 0.0058632903 -0.020441964 0.0065552145 0.020641342 -0.02164128
00000000: 609a e8ba 769c ec3c ba8c 0abd 9062 51bb
00000010: 6b55 fdbc 48d2 853c b8b6 c5bb e0b3 90ba
00000020: 8bbe 8bbc 9e7b c9bc e0da f53a d820 c03b
00000030: e875 a7bc 20cd d63b 0818 a93c 0e49 b1bc

layer2.1.weight f4 [16]
0.998352 1.0016872 1.0004424 1.0079858 0.9948762 1.0019287 0.998196 0.9975136
0.9973401 1.000159 0.9936349 1.0019226 0.9982979 1.0004541 1.0057893 1.0012643
00000000: ff93 7f3f 4937 803f 7f0e 803f ae05 813f
00000010: 35b0 7e3f 333f 803f c689 7f3f 0d5d 7f3f
00000020: ae51 7f3f 3605 803f db5e 7e3f 003f 803f
00000030: 7490 7f3f e10e 803f b4bd 803f 6e29 803f

layer2.1.bias f4 [16]
-0.0011736511 -0.0023194167 -0.0011055109 -0.005721303 -0.0011327207 -0.0003077563 0.0023102295 0.0023529015
-0.0004526576 0.00093731994 -0.0006466807 -0.0076241414 -0.0035386146 -0.0026935623 0.008070519 -0.0004827413
00000000: 32d5 99ba 5b01 18bb cae6 90ba c579 bbbb
00000010: cd77 94ba 5a5a a1b9 3867 173b 2333 1a3b
00000020: ad52 edb9 7ab6 753a 0286 29ba efd3 f9bb
00000030: 1ae8 67bb 7a86 30bb 363a 043c 7118 fdb9

layer2.1.running_mean f4 [16]
-0.054209623 -0.107679754 -0.06770611 -0.3441448 -0.28230175 -0.43689716 -0.9193637 -0.06237042
0.2774367 0.15759715 -0.39614373 0.32275778 -0.34641808 -0.59068245 -0.13958052 0.30496848
00000000: e90a 5ebd 3487 dcbd 80a9 8abd bf33 b0be
00000010: db89 90be fcb0 dfbe 6b5b 6bbf 2078 7fbd
00000020: 2f0c 8e3e 2661 213e 5ad3 cabe 8240 a53e
00000030: b65d b1be f736 17bf 32ee 0ebe d424 9c3e

layer2.1.running_var f4 [16]
0.3259451 0.17821512 0.3933037 0.21363114 0.29440388 0.4258723 0.5179816 0.5079787
0.23020656 0.31455398 0.22933015 0.37303066 0.16835336 0.18629783 0.12949987 0.2543561
00000000: 47e2 a63e 067e 363e 1a5f c93e 1fc2 5a3e
00000010: 1bbc 963e ef0b da3e 719a 043f e40a 023f
00000020: 45bb 6b3e 380d a13e 86d5 6a3e e0fd be3e
00000030: d364 2c3e dcc4 3e3e 9d9b 043e f63a 823e

layer3.0.weight f4 [6, 16, 3, 3]
0.03403571 -0.051729854 0.10086332 -0.07808656 0.032112062 0.049321834 0.026708797 -0.013030036
-0.0506876 -0.0720196 0.0021356794 0.051073726 0.09375422 0.03907858 -0.025138628 0.09140991
0.034909327 -0.074093156 0.0071728323 -0.01370415 -0.028778614 -0.024134533 0.08706296 0.056475725
-0.030904025 -0.03722414 -0.038628615 -0.020825718 0.015294945 0.066804774 -0.05553373 -0.020061547
-0.043450687 -0.050651826 -0.014723973 0.00068175414 0.05481458 -0.073962376 0.021841032 0.046219457
0.016925095 -0.047875576 0.042949878 -0.03733217 -0.033234194 -0.0014800682 -0.0006483318 -0.04280756
0.026612727 0.005287668 0.0011775128 -0.06380017 -0.06385108 0.00024109383 0.051262025 0.035893947
0.038125858 0.050781306 -0.042771537 -0.07386691 -0.021744104 -0.06304292 0.01291459 0.044542644
-0.05208565 -0.01667823 0.00655983 -0.0011932607 0.029329024 0.029919911 -0.034107387 -0.016441515
0.040422693 -0.006316006 -0.02412337 0.03524792 -0.0624674 0.085436806 -0.04142205 -0.020312462
-0.027028356 -0.006299999 0.03713502 0.08241049 -0.061294474 0.016368646 0.017447187 0.029257862
0.045200594 -0.04952617 -0.013718391 0.0253053 -0.023303159 0.0320289 -0.014098343 0.06533774
0.040268563 0.015109902 0.067645736 -0.010958151 0.07083918 -0.03774789 0.07395875 -0.017941516
-0.022234835 0.015910465 -0.039389037 0.014510684 0.08672248 -0.019880567 0.012951504 0.041826338
-0.015284465 -0.001067365 0.048485264 0.027358368 0.012939601 0.03056856 0.043159258 0.01334674
-0.060713395 0.021335384 0.013304741 0.027060915 -0.06464926 -0.05142917 -0.07474974 -0.058833815
-0.003060394 -0.024864132 0.0124000935 -0.020784248 -0.020731146 0.028275212 0.011271536 0.08058558
-0.057988785 0.013455206 0.034303885 0.0899595 -0.016924093 -0.020701746 0.07357315 -0.011552564
-0.042006265 -0.051264226 0.019577328 -0.05978867 -0.023396457 0.077556744 -0.0371203 0.047403753
-0.056707572 0.034154758 -0.057774015 0.04820074 0.0389763 -0.061690718 -0.0042364686 0.041020725
0.053480104 -0.05784778 -0.06692324 0.00807331 0.027061444 0.0029300759 -0.032601852 0.042304557
0.003200128 -0.04487955 0.05856321 0.061064135 -0.048296906 0.079567924 -0.0066069365 0.12170893
0.072924845 0.096209005 -0.025655586 -0.008889254 0.03752344 0.011605343 -0.05751381 0.007286898
0.015420792 0.07620864 0.03589225 0.060968865 -0.02191252 0.015900327 0.058989096 -0.04080267
0.06088431 -0.06447773 0.044643693 -0.068084404 0.03226469 0.019055601 -0.06836031 -0.04926568
0.047710467 0.05290921 -0.010880389 -0.0541863 0.051482346 -0.04670464 -0.07888754 -0.0458538
-0.009009754 0.06946066 -0.061799705 0.054007646 -0.030183086 0.05352494 -0.06386117 0.020682396
-0.05395398 -0.055486556 0.019195732 0.07605566 0.03295082 0.0021419572 -0.0037125475 0.012849346
0.03867396 0.0863692 -0.06797629 -0.09183336 0.004385276 0.06989577 0.054783802 0.029356588
0.026041219 -0.053774156 0.03600747 -0.040741187 -0.052026216 0.038839463 0.055612043 0.018347632
-0.03650454 -0.00062726345 0.047405757 0.05864463 0.05268934 0.07467557 0.075709924 0.08337251
-0.05166407 0.07116493 -0.021879237 0.02604428 -0.069573626 -0.07419452 0.008931077 -0.025303503
00000000: 0769 0b3d afe2 53bd 6e91 ce3d d9eb 9fbd
00000010: f087 033d b105 4a3d 68cc da3c ef7b 55bc
00000020: cd9d 4fbd 037f 93bd c1f6 0b3b af32 513d
00000030: 3602 c03d dc10 203d 86ef cdbc 1e35 bb3d
00000040: 15fd 0e3d 27be 97bd 140a eb3b 5f87 60bc
00000050: 21c1 ebbc c9b5 c5bc 114e b23d 1753 673d
00000060: 702a fdbc 5778 18bd 0a39 1ebd b29a aabc
00000070: a697 7a3c f1d0 883d 5677 63bd 1d58 a4bc
00000080: 59f9 31bd 4a78 4fbd d23c 71bc bfb7 323a
00000090: 4185 603d 9679 97bd f7eb b23c 9d50 3d3d
000000a0: 7fa6 8a3c 2e19 44bd 36ec 2f3d 9ee9 18bd
000000b0: 9420 08bd d9fe c1ba d0f4 29ba fb56 2fbd
000000c0: ef02 da3c 2d44 ad3b c656 9a3a aaa9 82bd
000000d0: 5bc4 82bd 22ce 7c39 21f8 513d 8805 133d
000000e0: dc29 1c3d 0f00 503d 3531 2fbd 8947 97bd
000000f0: b120 b2bc a51c 81bd b797 533c 5972 363d
00000100: c357 55bd c9a0 88bc d8f3 d63b 2f67 9cba
00000110: 6c43 f03c 9a1a f53c 30b4 0bbd 5bb0 86bc
00000120: 4492 253d 80f6 cebb 609e c5bc 1f60 103d
00000130: d1dd 7fbd 7ef9 ae3d 2baa 29bd 5266 a6bc
00000140: 926a ddbc 3970 cebb e41a 183d d5c6 a83d
00000150: ea0f 7bbd 8a17 863c 67ed 8e3c 2fae ef3c
00000160: 4224 393d f4db 4abd 1ac3 60bc 0f4d cf3c
00000170: 44e6 bebc bc30 033d bdfc 66bc cbcf 853d
00000180: a6f0 243d 868f 773c d989 8a3d d189 33bc
00000190: 2214 913d 889d 1abd af77 973d 16fa 92bc
000001a0: d425 b6bc aa56 823c 6656 21bd 38be 6d3c
000001b0: 8e9b b13d 92dc a2bc 8c32 543c 1852 2b3d
000001c0: b16b 7abc d4e6 8bba 7c98 463d a81e e03c
000001d0: 9f00 543c eb6a fa3c c3c7 303d 49ac 5a3c
000001e0: 9cae 78bd 8bc7 ae3c 21fc 593c daae dd3c
000001f0: d566 84bd 65a7 52bd 6416 99bd bafb 70bd
00000200: e490 48bb ddaf cbbc c329 4b3c ba43 aabc
00000210: 5dd4 a9bc 6ba1 e73c 40ac 383c 0d0a a53d
00000220: a685 6dbd 3973 5c3c 3b82 0c3d b03c b83d
00000230: 65a4 8abc b596 a9bc 85ad 963d f746 3dbc
00000240: c30e 2cbd 70fa 51bd a260 a03c f7e4 74bd
00000250: eda9 bfbc 12d6 9e3d 750b 18bd 702a 423d
00000260: 3346 68bd dce5 0b3d 72a4 6cbd 246e 453d
00000270: 9da5 1f3d 68af 7cbd 13d2 8abb 5905 283d
00000280: f40d 5b3d cbf1 6cbd 0d0f 89bd eb45 043c
00000290: f6af dd3c 8406 403b 8589 05bd 8b47 2d3d
000002a0: 3db9 513b 9ed3 37bd fadf 6f3d 631e 7a3d
000002b0: fad2 45bd 82f4 a23d 007f d8bb 8842 f93d
000002c0: 9f59 953d 3a09 c53d aa2b d2bc 3ca4 11bc
000002d0: 2eb2 193d 5624 3e3c 9a93 6bbd eec6 ee3b
000002e0: 7da7 7c3c 4713 9c3d c003 133d 7dba 793d
000002f0: e381 b3bc 6741 823c 8d9e 713d b320 27bd
00000300: d461 793d e60c 84bd 4edc 363d d66f 8bbd
00000310: fb27 043d 7e1a 9c3c 7d00 8cbd cfca 49bd
00000320: 0d6c 433d 54b7 583d a943 32bc 74f2 5dbd
00000330: 27df 523d 5d4d 3fbd ca8f a1bd 32d1 3bbd
00000340: a69d 13bc 6441 8e3d b021 7dbd 1f37 5d3d
00000350: 8542 f7bc f83c 5b3d a5c9 82bd 216e a93c
00000360: d9fe 5cbd df45 63bd 5e40 9d3c 12c3 9b3d
00000370: 70f7 063d 1460 0c3b 364e 73bb 1086 523c
00000380: 9668 1e3d 56e2 b03d 2737 8bbd 2113 bcbd
00000390: 5db2 8f3b 8325 8f3d fb64 603d 3a7d f03c
000003a0: 6554 d53c 4a42 5cbd 927c 133d 3be0 26bd
000003b0: 7119 55bd 2116 1f3d 74c9 633d c64d 963c
000003c0: c985 15bd f06e 24ba 8a2c 423d 5a35 703d
000003d0: c7d0 573d 81ef 983d ce0d 9b3d 35bf aa3d
000003e0: b49d 53bd ebbe 913d 163c b3bc d05a d53c
000003f0: 9e7c 8ebd 4cf3 97bd a753 123c 4b49 cfbc

layer3.0.bias f4 [6]
-0.074740484 -0.0007888377 0.043702908 -0.08168885 -0.01875908 -0.017631076
00000000: 8a11 99bd 00ca 4eba d201 333d 7c4c a7bd
00000010: a4ac 99bc 0c6f 90bc

layer3.1.weight f4 [6]
1.1234994 1.1045059 1.0925814 1.08136 1.1446562 1.121775
00000000: d4ce 8f3f 7360 8d3f b5d9 8b3f 016a 8a3f
00000010: 1884 923f 5396 8f3f

layer3.1.bias f4 [6]
0.033724602 0.023672922 0.025246974 0.022801375 0.054367524 0.03775523
00000000: cf22 0a3d b7ed c13c bed2 ce3c f3c9 ba3c
00000010: 7bb0 5e3d 3aa5 1a3d

layer3.1.running_mean f4 [6]
0.18841697 0.09942439 0.7041034 -0.074416526 -0.041469593 0.13321425
00000000: 61f0 403e 049f cb3d 1f40 343f b167 98bd
00000010: 05dc 29bd 5169 083e

layer3.1.running_var f4 [6]
0.10603212 0.21450742 0.14599112 0.20714328 0.1628391 0.09764394
00000000: 5e27 d93d d5a7 5b3e b27e 153e 5e1d 543e
00000010: 4bbf 263e 8cf9 c73d

fc1.weight f4 [512, 24]
-0.14712018 -0.07956466 0.0851192 0.11179551 -0.183933 -0.104108356 0.073150404 -0.19173421
0.04972566 -0.13933487 0.13998783 0.15911135 -0.076661415 -0.08774349 -0.073516294 -0.106650814
0.08650709 -0.12757315 -0.15292428 -0.15403827 0.02893185 -0.030692207 -0.19197565 0.044230998
-0.15087229 -0.067906395 -0.06371339 0.025064673 0.038186938 0.012206414 -0.20273122 -0.15334703
-0.017896775 0.09329588 -0.102768935 -0.15560207 -0.15568468 -0.09758476 0.09591863 0.16438836
0.16760103 -0.1106626 0.12502657 0.013765841 0.14033498 0.104006976 0.10301619 0.080856115
0.17536484 0.16020639 -0.07092636 0.052075744 -0.0035996118 0.051213503 0.169035 0.06311309
-0.015697094 -0.15903606 -0.054522287 0.16524665 -0.10411429 0.16336198 0.1940609 -0.059036117
0.032762956 0.17449369 0.099797614 0.012683207 0.06821467 -0.18924807 -0.1500625 -0.015104752
-0.17841826 -0.0012196286 -0.024459207 -0.16876361 -0.1045674 -0.13292202 0.16550925 0.10539324
-0.013432706 0.015190947 -0.071322024 -0.0017111666 0.12575911 0.06639309 -0.11019675 -0.10424976
-0.16524766 0.07573944 0.039290573 0.10902886 0.10110072 -0.1103176 0.041214693 -0.105602756
-0.13945018 -0.05319852 0.11799407 0.085749045 0.017407816 -0.032611214 0.01822033 -0.016574668
0.058992803 0.010773377 0.15146382 -0.074196465 0.14766131 0.098667465 -0.001038235 -0.11950628
0.11930654 -0.097807124 -0.05484334 -0.07523221 -0.12207795 0.12722819 -0.079478055 -0.180113
-0.16361864 0.050400108 0.11324872 0.06356394 -0.099206686 -0.073812544 -0.15099196 -0.08603539
0.022374818 -0.1970702 0.10296442 0.018277466 0.05829884 0.174222 -0.11692016 0.010299615
0.19301711 0.10846175 -0.14251521 -0.18432204 -0.114459425 0.188092 -0.07826673 -0.0720605
-0.06686677 -0.08871027 -0.117985345 0.20207798 0.037013244 -0.17389423 0.044308625 -0.12814744
0.10401627 0.020632438 0.076500185 -0.1623423 -0.09556856 0.097711585 0.0065163192 -0.12920116
-0.027322974 -0.03307976 -0.093874685 -0.061450906 -0.025007809 -0.12859154 -0.00044576882 0.02721226
-0.08712548 0.18333724 0.0017016296 -0.16115463 -0.11616182 -0.19607839 -0.1388623 0.16217
-0.10087262 0.008150589 0.0838236 0.15606062 0.17242755 -0.16374011 0.08289702 0.16979104
0.009107848 -0.057292145 0.19746058 0.006140393 -0.20515725 0.07347162 0.10325174 0.042101927
0.16762204 -0.099757254 0.09192043 0.07465523 -0.003442854 -0.027448539 -0.059549842 -0.0030808568
0.15090238 -0.07185513 -6.66906e-05 -0.18435904 0.109097295 -0.04988196 0.08415611 0.04439305
-0.03758296 -0.19456905 -0.18637122 -0.095430516 -0.10991721 -0.094318815 -0.19148715 0.12088624
-0.008327637 -0.20487422 -0.039544325 0.082660146 -0.0315037 0.13970536 -0.11689515 -0.101749144
-0.15751477 -0.007970477 -0.19931774 0.1444773 0.08314903 0.051313993 0.022703314 -0.027448824
-0.19220555 0.051777177 0.1579135 0.14153606 -0.041265126 -0.07730554 0.12977041 0.14064062
-0.05914826 0.05017149 -0.07536092 -0.070631206 -0.08950883 0.14363465 -0.13792291 -0.122184396
0.017593155 0.10359168 -0.16009945 -0.14405523 0.03626382 0.12489031 0.11974509 -0.16080017
00000000: aca6 16be ccf2 a2bd fa52 ae3d 0bf5 e43d
00000010: ef58 3cbe c336 d5bd e1cf 953d f955 44be
00000020: 22ad 4b3d cdad 0ebe f858 0f3e 16ee 223e
00000030: a900 9dbd dcb2 b3bd b68f 96bd be6b dabd
00000040: a12a b13d 89a2 02be 2f98 1cbe 35bc 1dbe
00000050: 7d02 ed3c 396e fbbc 4495 44be 902b 353d
00000060: 447e 1abe 8212 8bbd 2a7c 82bd 6e54 cd3c
00000070: e869 1c3d 69fd 473c c698 4fbe 0107 1dbe
00000080: 429c 92bc e911 bf3d 8578 d2bd 2656 1fbe
00000090: ce6b 1fbe 85da c7bd fd70 c43d 6c55 283e
000000a0: 9b9f 2b3e 13a3 e2bd f706 003e 1f8a 613c
000000b0: f9b3 0f3e 9c01 d53d 27fa d23d e497 a53d
000000c0: d792 333e 250d 243e d741 91bd 604d 553d
000000d0: 77e7 6bbb 40c5 513d 8317 2d3e 7041 813d
000000e0: 3197 80bc 59da 22be c352 5fbd 6b36 293e
000000f0: df39 d5bd 5d48 273e e7b7 463e dbcf 71bd
00000100: 7332 063d 79ae 323e b162 cc3d 3acd 4f3c
00000110: 22b4 8b3d 3fca 41be fca9 19be ec79 77bc
00000120: 47b3 36be f2db 9fba ad5e c8bc 5ed0 2cbe
00000130: 6f27 d6bd b61c 08be 427b 293e 69d8 d73d
00000140: da14 5cbc 73e3 783c 4811 92bd 3949 e0ba
00000150: ffc6 003e 1af9 873d d5ae e1bd e680 d5bd
00000160: af36 29be 481d 9b3d 27ef 203d 864a df3d
00000170: e50d cf3d 32ee e1bd bdd0 283d 4246 d8bd
00000180: 07cc 0ebe b1e6 59bd e0a6 f13d 329d af3d
00000190: d69a 8e3c 5693 05bd cd42 953c 99c7 87bc
000001a0: 70a2 713d d182 303c 5519 1b3e 51f4 97bd
000001b0: 8734 173e 2b12 ca3d 6315 88ba b5bf f4bd
000001c0: fd56 f43d 1a4f c8bd 69a3 60bd 5813 9abd
000001d0: 0104 fabd 1b48 023e 64c5 a2bd 8b6f 38be
000001e0: a58b 27be 5870 4e3d f2ee e73d d02d 823d
000001f0: e02c cbbd 082b 97bd a39d 1abe 5333 b0bd
00000200: 654b b73c c5cc 49be 03df d23d a0ba 953c
00000210: c4ca 6e3d 4167 323e d673 efbd b7bf 283c
00000220: 47a6 453e 3221 de3d 82ef 11be ebbe 3cbe
00000230: b469 eabd 309b 403e 4f4a a0bd 7594 93bd
00000240: 72f1 88bd bbad b5bd 4da2 f1bd 88ed 4e3e
00000250: 339b 173d 5411 32be f67c 353d 1539 03be
00000260: 7b06 d53d 5c05 a93c 21ac 9c3d 0f3d 26be
00000270: 73b9 c3bd 031d c83d d986 d53b 4f4d 04be
00000280: 6ed4 dfbc a47e 07bd 5f41 c0bd f2b3 7bbd
00000290: 2ddd ccbc 80ad 03be 14b6 e9b9 3fec de3c
000002a0: d86e b2bd c2bc 3b3e 3709 df3a b805 25be
000002b0: 40e6 edbd c6c8 48be eb31 0ebe e40f 263e
000002c0: 4e96 cebd 0c8a 053c b5ab ab3d 5bce 1f3e
000002d0: d990 303e 7dab 27be eac5 a93d b4dd 2d3e
000002e0: 1539 153c 2bab 6abd 1b33 4a3e 5a35 c93b
000002f0: be14 52be 4a78 963d a675 d33d 1273 2c3d
00000300: 1da5 2b3e 884d ccbd c740 bc3d d7e4 983d
00000310: 81a1 61bb c2db e0bc 89ea 73bd 33e8 49bb
00000320: 2786 1a3e c828 93bd 3edc 8bb8 9ec8 3cbe
00000330: 676e df3d 0751 4cbd 0a5a ac3d 7dd5 353d
00000340: 97f0 19bd 1c3d 47be 19d8 3ebe 1371 c3bd
00000350: 461c e1bd 392a c1bd 3515 44be 3493 f73d
00000360: a470 08bc 8cca 51be 3bf9 21bd b949 a93d
00000370: 060a 01bd ec0e 0f3e b966 efbd db61 d0bd
00000380: 8d4b 21be 9b96 02bc f319 4cbe dbf1 133e
00000390: 0a4a aa3d 9f2e 523d 4dfc b93c 5bdc e0bc
000003a0: 88d1 44be 4e14 543d 14b4 213e d4ee 103e
000003b0: 9f05 29bd 5e52 9ebd 89e2 043e 1804 103e
000003c0: 7245 72bd 9f80 4d3d d356 9abd 18a7 90bd
000003d0: 6850 b7bd f614 133e aa3b 0dbe d03b fabd
000003e0: 851f 903c e027 d43d 1cf1 23be 3783 13be
000003f0: 5f89 143d 7ec6 ff3d ea3c f53d cda8 24be

fc1.bias f4 [512]
-0.07464954 -0.08701972 0.10898255 -0.12232505 0.1942411 -0.057095468 -0.14880598 -0.016472451
-0.18639082 0.12967941 -0.10944436 0.025312055 -0.026069721 0.061773155 0.1797045 -0.15425926
-0.027769448 0.15235645 0.05938807 0.10996349 0.045189418 0.19803104 0.030131862 0.14448962
-0.12240418 -0.12928154 -0.034555808 -0.008936388 -0.2028886 -0.1885729 -0.0131439 -0.08845025
0.01424351 -0.15858719 0.150775 -0.04707486 0.03212437 -0.036599778 0.18945846 0.13943502
-0.16262622 0.03829751 -0.013794005 -0.18473792 0.047626343 0.006967244 -0.13703574 -0.12901059
0.12536325 -0.1332062 0.0911515 0.03471162 0.1403945 -0.13336538 -0.09035271 -0.12681895
0.14212361 -0.055965435 -0.11598115 -0.15329571 -0.019833043 0.19435246 -0.071009554 -0.07200273
-0.0966203 0.030390248 -0.13972369 0.19492735 0.09072248 0.124421164 -0.11087437 -0.15426098
-0.09386005 -0.08874025 0.19486655 -0.13745394 -0.069105476 -0.10241893 0.1580842 0.05568559
-0.07517919 0.09843199 0.008267426 -0.081340626 0.06506643 -0.17578265 0.18317538 0.1861959
0.052354906 -0.08136554 -0.20110978 -0.101472475 0.14130539 0.1987642 -0.12962495 0.03825953
-0.14648725 -0.16964832 -0.17237356 -0.05797539 -0.036349386 0.035146818 0.0010844893 -0.16730925
-0.033999946 -0.20070995 0.017579837 0.011460111 0.031776004 0.16894507 -0.07354352 0.18926406
-0.11790414 0.1723347 0.19843312 -0.14368095 0.18444122 0.17270392 0.03044678 -0.044919554
0.03537616 -0.16592513 -0.031271666 -0.17263678 0.07363528 0.019322744 -0.023374349 0.03246341
-0.065461636 -0.2028025 -0.07627254 0.18628608 -0.16876255 0.0914301 -0.04603378 0.11513777
-0.1882276 0.08742671 0.14554931 -0.007420731 0.13299464 -0.002133682 -0.1598952 -0.19728845
0.13468431 0.06408293 -0.16583931 0.051221807 0.010925666 0.19217661 -0.08164954 -0.07644971
-0.05424076 -0.032915246 -0.015402438 0.10700964 -0.1041178 -0.19916119 -0.1476006 0.10717233
0.021096116 0.11880751 -0.07003472 0.09187322 -0.19187874 -0.18436752 0.034069248 0.08011535
-0.11520914 -0.0410705 -0.12996219 -0.0821777 -0.14735256 -0.051431905 -0.013969311 -0.17958067
0.13877077 -0.19626078 0.1926048 -0.07346185 0.1390466 0.101514556 0.12583974 -0.19995438
0.18332425 0.046351835 0.061355446 0.09786318 0.20375943 -0.080775976 -0.15950516 -0.11489821
-0.08193958 -0.0060813213 -0.20051438 0.119017236 0.16948634 -0.15280338 0.055627074 0.16109824
-0.108477995 0.011112932 -0.007903862 0.116158456 0.17350857 -0.14884019 0.18861996 -0.14593671
-0.16816224 -0.14384149 -0.11489123 -0.054167286 -0.18203628 0.0716719 -0.016733864 -0.05138139
-0.1667238 -0.1278847 -0.12938388 -0.035067774 0.02728501 -0.12669463 -0.08363488 -0.2006815
-0.17810214 0.09989176 -0.04058073 -0.14702788 0.12913857 -0.07430788 0.17239444 -0.05462759
0.011230602 -0.19332501 0.08936067 -0.085310444 0.08365465 -0.07612266 0.048063524 -0.11694452
-0.199732 -0.17347352 0.18730834 -0.07599173 -0.014805157 0.0023898005 0.1450642 0.14074622
-0.07355521 0.17088886 0.06472853 0.1616531 -0.116608016 0.14282535 -0.16030608 -0.0030986187
00000000: dce1 98bd 6537 b2bd 3e32 df3d 8e85 fabd
00000010: 24e7 463e f0dc 69bd 9860 18be 3cf1 86bc
00000020: 3cdd 3ebe aeca 043e 5d24 e0bd 3a5b cf3c
00000030: 2b90 d5bc d905 7d3d 7504 383e 24f6 1dbe
00000040: c17c e3bc 5403 1c3e e840 733d 8a34 e13d
00000050: 8a18 393d a6c8 4a3e 18d7 f63c 16f5 133e
00000060: 0baf fabd 6162 04be 648a 0dbd ee69 12bc
00000070: 07c2 4fbe 4119 41be 8359 57bc 6825 b5bd
00000080: 9c5d 693c ae64 22be c364 1a3e 92d1 40bd
00000090: d894 033d a6e9 15bd 6601 423e 0ec8 0e3e
000000a0: 7d87 26be dadd 1c3d 4000 62bc f02b 3dbe
000000b0: d713 433d 7b4d e43b 1953 0cbe 5a1b 04be
000000c0: 395f 003e 3567 08be a3ad ba3d c62d 0e3d
000000d0: 93c3 0f3e ef90 08be d70a b9bd d4dc 01be
000000e0: da88 113e 033c 65bd 8687 edbd 8df9 1cbe
000000f0: e878 a2bc 5504 473e 756d 91bd 2b76 93bd
00000100: dde0 c5bd f8f4 f83c ba13 0fbe 099b 473e
00000110: b5cc b93d 86d0 fe3d 1a12 e3bd 97f6 1dbe
00000120: b339 c0bd 73bd b5bd 198b 473e bac0 0cbe
00000130: 2c87 8dbd 04c1 d1bd d3e0 213e 9316 643d
00000140: 8cf7 99bd b696 c93d 1974 073c ea95 a6bd
00000150: 8c41 853d 5e00 34be 5492 3b3e 23aa 3e3e
00000160: 1972 563d faa2 a6bd b9ef 4dbe cdd0 cfbd
00000170: 5cb2 103e d888 4b3e 67bc 04be 06b6 1c3d
00000180: c100 16be 4ab8 2dbe b282 30be 9a77 6dbd
00000190: 18e3 14bd 1cf6 0f3d 6c25 8e3a 1e53 2bbe
000001a0: 8743 0bbd e986 4dbe 9703 903c 30c3 3b3c
000001b0: 8e27 023d f0ff 2c3e fc9d 96bd 70ce 413e
000001c0: ba77 f1bd 8278 303e 0d32 4b3e 1921 13be
000001d0: 29de 3c3e 4cd9 303e 876b f93c 91fd 37bd
000001e0: 98e6 103d 47e8 29be b816 00bd b2c7 30be
000001f0: 18ce 963d bb4a 9e3c 907b bfbc 5af8 043d
00000200: c010 86bd 75ab 4fbe c734 9cbd c7c1 3e3e
00000210: 17d0 2cbe b43f bb3d eb8d 3cbd 5acd eb3d
00000220: bcbe 40be c60c b33d e10a 153e 9a29 f3bb
00000230: bf2f 083e 3ed5 0bbb 91bb 23be fc05 4abe
00000240: afea 093e e93d 833d c8d1 29be f5cd 513d
00000250: 9101 333c f2c9 443e e037 a7bd aa91 9cbd
00000260: 8f2b 5ebd 23d2 06bd 825a 7cbc df27 db3d
00000270: b73b d5bd e9f0 4bbe 9d24 17be 2b7d db3d
00000280: c3d1 ac3c 5a51 f33d 5d6e 8fbd 0728 bc3d
00000290: dc7b 44be d7ca 3cbe 328c 0b3d 8413 a43d
000002a0: c5f2 ebbd 8a39 28bd cf14 05be c84c a8bd
000002b0: 97e3 16be 43aa 52bd 89df 64bc ffe3 37be
000002c0: ed19 0e3e 96f8 48be 313a 453e 2b73 96bd
000002d0: 3b62 0e3e dde6 cf3d 22dc 003e d7c0 4cbe
000002e0: 5ab9 3b3e 6cdb 3d3d d94f 7b3d 7e6c c83d
000002f0: 50a6 503e e06d a5bd 5255 23be c14f ebbd
00000300: f0cf a7bd d245 c7bb a453 4dbe 4fbf f33d
00000310: d48d 2d3e 7d78 1cbe 37d9 633d f0f6 243e
00000320: b629 debd 0413 363c 337f 01bc 7ce4 ed3d
00000330: 3bac 313e 9069 18be 9725 413e 6f70 15be
00000340: b932 2cbe 2f4b 13be 184c ebbd 84de 5dbd
00000350: b867 3abe b8c8 923d 7515 89bc 4b75 52bd
00000360: a5b9 2abe 35f4 02be 357d 04be 3aa3 0fbd
00000370: d084 df3c 3dbc 01be c448 abbd 737f 4dbe
00000380: 6860 36be 0d94 cc3d fb37 26bd 7a8e 16be
00000390: e73c 043e bb2e 98bd 2b88 303e 2ec1 5fbd
000003a0: 8f00 383c fef6 45be ba02 b73d 3eb7 aebd
000003b0: 2153 ab3d 32e6 9bbd 42de 443d 9c80 efbd
000003c0: 8c86 4cbe 0ba3 31be c2cd 3f3e 8da1 9bbd
000003d0: 5491 72bc 339e 1c3b b68b 143e c71f 103e
000003e0: 1da4 96bd 7dfd 2e3e 6490 843d 6488 253e
000003f0: 2fd0 eebd cf40 123e 4727 24be 3212 4bbb

fc2.weight f4 [64, 512]
0.031698693 0.031114854 -0.00907277 0.008091401 -0.009999884 -0.010711697 -0.01026317 -0.045842357
0.028181894 0.008169279 -0.027066799 -0.008756154 -0.032360625 -0.014515791 0.008105948 0.03338471
-0.046586454 0.0027545588 -0.00027549992 0.039616577 0.012087814 -0.008040203 0.024247808 -0.04159785
-0.013546801 -0.0042505967 0.00026874727 -0.0013033067 -0.022251705 0.050829053 -0.01911317 0.036132995
-0.01651322 0.0409149 0.03574523 -0.0219844 -0.018577928 0.03215794 -0.018495506 -0.007259383
-0.035453632 -0.013526076 0.038985457 -0.026896343 0.031835735 -0.00053474325 -0.0060496214 -0.02238396
-0.02277571 -0.0078113265 -0.03818514 0.040954325 -0.037205998 -0.03180334 0.00718583 0.025131226
-0.03404838 0.012641659 -0.019752787 -0.02569338 -0.011179344 0.035289846 -0.013294915 0.02317506
0.04572958 -0.023777742 0.042175718 0.005901431 -0.013071471 -0.023561675 -0.0024923955 0.0002663608
0.041026395 -0.009623119 0.034331646 0.007876344 -0.0012152022 -0.037555512 0.0035613494 -0.04024228
0.043764763 -0.025948461 0.009867608 0.03963427 -0.039001912 0.01005164 0.035901833 0.026380226
0.015362445 0.035312485 0.026651246 0.032952853 -0.025186094 -0.032013938 0.028908113 -0.0115737375
0.022690715 0.036069304 0.01361135 -0.038887866 -0.020950709 0.021155 0.029999232 0.009141372
0.0406695 0.01578717 -0.04966445 -0.011557211 0.023308024 0.025581079 0.049239736 0.039571814
0.003371853 0.0069463477 -0.034449473 0.035476193 -0.005421031 0.047980376 0.008682617 0.03224298
-0.017749045 0.01866272 0.0067412565 0.014608316 -0.038191248 -0.008070763 0.0130374925 0.033541895
-0.012363676 -0.013179914 0.0007698569 0.028735485 -0.007915021 0.033713955 0.029590264 0.00057736266
0.02123238 0.04286473 -0.033699974 -0.029807543 -0.008435629 0.020330647 0.042462297 -9.715088e-05
0.027404446 -0.005381526 -0.0068017417 -0.024453618 0.010706885 0.022859499 -0.021077119 -0.017276036
-0.038274344 -0.031568922 -0.00861162 0.017329862 -0.025453614 0.024292842 0.04203839 0.041583166
0.037665173 -0.04136197 -0.026800161 0.013311075 -0.049422484 0.023337504 0.0064846585 0.018883653
-0.030832227 -0.00717456 -0.029768744 -0.026811048 -0.0038168742 0.010984287 0.034281928 -0.0020122032
-0.010263836 0.031882245 0.04316074 -0.017116223 0.034809873 0.001196 -0.0008140061 -0.014189493
0.023040362 -0.022103481 0.021470824 -0.0320401 -0.03475439 0.002583242 -0.019574508 0.0068451143
0.035734374 -0.04085134 0.038744394 0.040398587 0.0021897948 0.03938798 -0.040847518 0.022095395
0.025214871 0.0012170624 0.022762034 -0.025873698 -0.010958345 0.013874336 -0.03772259 -0.011113181
-0.029985672 -0.020560477 0.0001094519 -0.035689913 -0.03454372 -0.0162107 0.041446954 -0.04025453
0.022395706 0.011761953 0.014934502 -0.013531697 0.03638132 0.009770377 0.0105929235 -0.040242005
0.016800484 -0.024451742 -0.02938254 0.019303406 0.013380432 0.007581528 -0.037113752 0.00330461
-0.031067202 0.02103552 0.015202668 -0.013171004 -0.013685611 0.02426156 -0.008356882 0.03659421
-2.1753882e-05 0.038189605 0.0030305013 0.012287091 0.0076975436 -0.013416334 -0.026142506 0.030592
-0.020229531 -0.0031406996 0.020031255 -0.020576006 0.012973949 0.005088883 -0.023807254 0.024417492
00000000: 7dd6 013d 94e4 fe3c f5a5 14bc cc91 043c
00000010: 8ed6 23bc 1d80 2fbc db26 28bc 32c5 3bbd
00000020: b7dd e63c 71d8 053c 31bb ddbc f975 0fbc
00000030: 938c 04bd a4d3 6dbc cfce 043c 68be 083d
00000040: 70d1 3ebd d485 343b f970 90b9 fe44 223d
00000050: f70b 463c 0ebb 03bc 57a3 c63c 8262 2abd
00000060: 67f3 5dbc 9748 8bbb a6e6 8c39 b7d3 aaba
00000070: 3549 b6bc 2032 503d 3993 9cbc 3100 143d
00000080: bb46 87bc 6296 273d 9769 123d a118 b4bc
00000090: bd30 98bc 0bb8 033d e383 97bc 1ee0 edbb
000000a0: d437 11bd 7a9c 5dbc 37af 1f3d b855 dcbc
000000b0: 3066 023d 032e 0cba e73b c6bb 915e b7bc
000000c0: 2094 babc 28f6 ffbb 0568 1cbd b9bf 273d
000000d0: 5165 18bd 3844 02bd 1c77 eb3b 00e0 cd3c
000000e0: 5076 0bbd f61e 4f3c 99d0 a1bc ec7a d2bc
000000f0: 9129 37bc 168c 103d ead2 59bc a0d9 bd3c
00000100: f14e 3b3d 8ac9 c2bc 72c0 2c3d cb60 c13b
00000110: b929 56bc 6a04 c1bc 7557 23bb 57a6 8b39
00000120: 4b0b 283d 49aa 1dbc 579f 0c3d c80b 013c
00000130: 6b47 9fba cfd3 19bd 8765 693b 17d5 24bd
00000140: ae42 333d de91 d4bc bfab 213c 8b57 223d
00000150: 78c0 1fbd a2af 243c cd0d 133d 581b d83c
00000160: c4b2 7b3c d3a3 103d b753 da3c 92f9 063d
00000170: 1153 cebc 0c21 03bd b5d0 ec3c c69f 3dbc
00000180: e1e1 b93c 68bd 133d 2402 5f3c e248 1fbd
00000190: d2a0 abbc 404d ad3c f3c0 f53c b1c5 153c
000001a0: 1095 263d 1854 813c f36c 4bbd 755a 3dbc
000001b0: 78f0 be3c 698f d13c 9baf 493d 0e16 223d
000001c0: 4efa 5c3b 309e e33b e41a 0dbd 7c4f 113d
000001d0: e7a2 b1bb 1287 443d 8941 0e3c 3711 043d
000001e0: 7266 91bc 90e2 983c c2e5 dc3b b857 6f3c
000001f0: 6d6e 1cbd 3c3b 04bc 359b 553c 3a63 093d
00000200: 0491 4abc 91f0 57bc 39d0 493a ae66 eb3c
00000210: 01ae 01bc a517 0a3d 4867 f23c 275a 173a
00000220: 87ef ad3c ed92 2f3d fc08 0abd f32e f4bc
00000230: 9835 0abc 758c a63c f2ec 2d3d 7bbd cbb8
00000240: 4a7f e03c 8357 b0bb 25e1 debb f452 c8bc
00000250: ee6b 2f3c d843 bb3c eca9 acbc 7986 8dbc
00000260: 8fc5 1cbd 6a4e 01bd c117 0dbc 5bf7 8d3c
00000270: 1984 d0bc c801 c73c 7230 2c3d 1c53 2a3d
00000280: cc46 1a3d 2b6b 29bd 038c dbbc b216 5a3c
00000290: 3b6f 4abd 4b2e bf3c 427d d43b e4b1 9a3c
000002a0: de93 fcbc 9218 ebbb 95dd f3bc d8a2 dbbc
000002b0: 8624 7abb 70f7 333c 356b 0c3d 2bdf 03bb
000002c0: a629 28bc f596 023d 51c9 303d 5237 8cbc
000002d0: cc94 0e3d 1ac3 9c3a 0663 55ba 0c7b 68bc
000002e0: 24bf bc3c 5c12 b5bc 95e3 af3c 7b3c 03bd
000002f0: 9f5a 0ebd 9c4b 293b b85a a0bc fb4c e03b
00000300: 355e 123d bc53 27bd 71b2 1e3d fd78 253d
00000310: a982 0f3b 4a55 213d ba4f 27bd 6701 b53c
00000320: 6b8f ce3c d685 9f3a 7277 ba3c 14f5 d3bc
00000330: a18a 33bc 2f51 633c 0183 1abd 0f14 36bc
00000340: 83a4 f5bc 726e a8bc 8b89 e538 962f 12bd
00000350: b77d 0dbd 4dcc 84bc 48c4 293d efe1 24bd
00000360: 3377 b73c 35b5 403c d7af 743c 0db4 5dbc
00000370: 9404 153d ee13 203c f18d 2d3c cdd4 24bd
00000380: 2ba1 893c 054f c8bc a7b3 f0bc 2d22 9e3c
00000390: 9939 5b3c 776e f83b 9704 18bd 2892 583b
000003a0: a580 febc af52 ac3c 9c14 793c 32cb 57bc
000003b0: 9d39 60bc 2ec0 c63c 4eeb 08bc cfe3 153d
000003c0: 1b7c b6b7 b46c 1c3d 609b 463b cc4f 493c
000003d0: ad3b fc3b 2fd0 5bbc cf28 d6bc 139c fa3c
000003e0: 67b8 a5bc 32d4 4dbb 9618 a43c 038f a8bc
000003f0: b090 543c a5c0 a63b 6e07 c3bc 3107 c83c

fc2.bias f4 [64]
-0.040991537 -0.006001236 -0.04525605 -0.0025621706 0.004561115 -0.0032871317 -0.030617375 0.028452417
-0.033491235 -0.02035182 -0.032658774 0.0001897119 -0.030553056 0.030737748 0.034269 0.017115064
-0.017113186 -0.0034496519 0.016288642 0.0062814546 0.038984906 -0.031697102 -0.003709031 0.008330053
-0.013566404 -0.030775622 0.021536337 0.003400847 0.027451366 -0.009640378 -0.031043207 0.013481432
-0.029641196 -0.02105187 0.012081009 -0.037792154 0.037228048 -0.042240668 -0.009478342 0.043725956
-0.034040254 -0.04515369 -0.026455725 0.0444481 0.04471476 0.0436009 0.004987876 0.038911343
-0.014933509 -0.021286493 0.033868745 0.0017382064 -0.01874559 -0.027994314 -0.0446819 0.042251177
0.02791649 0.03103853 -0.0012986177 7.5888835e-05 -0.033826068 0.010003226 -0.036073614 -0.027000846
00000000: bee6 27bd 04a6 c4bb 685e 39bd 17ea 27bb
00000010: 6875 953b eb6c 57bb 4ad1 fabc 0b15 e93c
00000020: 1b2e 09bd dcb8 a6bc 35c5 05bd 66ed 4639
00000030: 674a fabc bbcd fb3c a75d 0c3d e434 8c3c
00000040: f430 8cbc 8e13 62bb c26f 853c a9d4 cd3b
00000050: a3ae 1f3d d2d4 01bd 3713 73bb c67a 083c
00000060: 9f45 5ebc 281d fcbc f96c b03c bfe0 5e3b
00000070: b0e1 e03c adf2 1dbc 534e febc 39e1 5c3c
00000080: 18d2 f2bc f974 acbc 6def 453c f2cb 1abd
00000090: 707c 183d 8d04 2dbd 0c4b 1bbc fd19 333d
000000a0: cb6d 0bbd 13f3 38bd adb9 d8bc 360f 363d
000000b0: d326 373d db96 323d 5671 a33b 8061 1f3d
000000c0: adab 74bc 0361 aebc f4b9 0a3d 87d4 e33a
000000d0: 5a90 99bc 5554 e5bc 5e04 37bd 920f 2d3d
000000e0: 1fb1 e43c 8444 fe3c 6136 aaba 8226 9f38
000000f0: 348d 0abd 92e4 233c edc1 13bd e130 ddbc
